leetcode_xch27/onnx_model_name.onnx (onnx, 240334 bytes, 8 tensors)

36 f4 [64, 64, 3, 3]
0	0xbd1d241e	-0.038364522
1	0x3bd0188a	0.0063505815
2	0xbc990d3a	-0.018683065
3	0x3d090c4b	0.03345899
4	0x3d0c97d4	0.034324482
5	0x3c16b972	0.009199487
6	0x3c78b08d	0.015178812
7	0x3d2f87e2	0.042854197
8	0x3d12ff56	0.03588804
9	0x3aaa6946	0.0013001345
10	0xbccf1d6f	-0.02528259
11	0x3d0109a6	0.031503342
12	0xbd214319	-0.03937063
13	0x3d049566	0.03236904
14	0xbcec7697	-0.028865142
15	0x3c7977d7	0.015226326
16	0x3c016eb5	0.00789993
17	0x3cb312e3	0.021859592
18	0x3d23a8e0	0.039955974
19	0x3d073d28	0.033017308
20	0xbacf5a3c	-0.0015819739
21	0xbd0b7a6f	-0.03405231
22	0x3d11a8a4	0.03556122
23	0x3c818262	0.015809242
24	0xbc41f1ff	-0.0118374815
25	0x3b956648	0.004559312
26	0x3bda1a43	0.0066559627
27	0x3c637e0e	0.013885034
28	0xbcc74aa0	-0.024327576
29	0x3c8567d8	0.016284868
30	0x3d208937	0.03919336
31	0x3ab5580b	0.0013835443
32	0x3bf8bf3f	0.0075911577
33	0xbcc9cdfe	-0.024634358
34	0x3be44c0b	0.006967073
35	0xbd1704b1	-0.03686971
36	0x3d0bcaf1	0.034129087
37	0x3d093cb6	0.033505164
38	0xbd233522	-0.039845593
39	0xbd01142e	-0.031513385
40	0xbbdb2033	-0.006687188
41	0x3d22f24a	0.039781846
42	0xbc355fa4	-0.011070166
43	0xbbd90206	-0.0066225557
44	0xbcb2e39f	-0.021837054
45	0x3b99d6ad	0.004694781
46	0x3cd79d30	0.02632007
47	0xbcb59a69	-0.022168355
48	0x3cbf109d	0.023323352
49	0xbd0ab6ba	-0.033865668
50	0xbcc0a694	-0.02351693
51	0x3c1ce982	0.009577157
52	0xbb4cdbf0	-0.0031259023
53	0xbd081922	-0.033227094
54	0x3d2dd800	0.04244232
55	0x3d1f0039	0.03881857
56	0xbcf3012a	-0.029663641
57	0xbd32b4ba	-0.043629386
58	0xbc8ec344	-0.017427094
59	0x3d0b5675	0.034018
60	0x3d01c6e6	0.031683825
61	0xbc377f9e	-0.01119986
62	0x3d114ebf	0.03547549
63	0xbcbcdc37	-0.023054225
64	0xbcb1b84a	-0.021694321
65	0x3cc5ca24	0.02414424
66	0xbd1d2022	-0.038360722
67	0xbcb49500	-0.022043705
68	0xbd2cf2e3	-0.042223822
69	0x3c863c0a	0.01638605
70	0x3c7c12d0	0.015385345
71	0xbca7575e	-0.020427402
72	0x3d300d14	0.042981222
73	0x3ceace7a	0.028662909
74	0x3d115a62	0.035486586
75	0xbc224f61	-0.009906621
76	0xbd21fcf2	-0.039547868
77	0xbd1035bc	-0.035207495
78	0x3c2d7cbf	0.010588824
79	0x3cf83521	0.030298771
80	0x3d091bba	0.033473708
81	0xbcbb4d56	-0.022864025
82	0x3b0cce03	0.0021485097
83	0xbc09bd7c	-0.008406993
84	0xbcd8532f	-0.026406853
85	0x3d0fbd07	0.03509238
86	0x3d2ca813	0.042152476
87	0x3ca8fea1	0.020629229
88	0xbd11e1fb	-0.035615902
89	0x3c3d6f6c	0.01156221
90	0xbcacea95	-0.021107951
91	0x3cbcb2da	0.023034502
92	0xbb6ac5d0	-0.0035823472
93	0xbca34a69	-0.019932942
94	0x3ce3562e	0.027751055
95	0x3c6b3b40	0.014357388
96	0xbce12835	-0.027484993
97	0x3d2bdb67	0.041957285
98	0xbd2ea0d4	-0.042633846
99	0x3d26122e	0.04054468
100	0x3d226581	0.039647583
101	0x3aafa557	0.0013400716
102	0xbc4dd10d	-0.012562049
103	0xbcd43a7e	-0.025906797
104	0xbc0a939b	-0.008458043
105	0xbd3001d7	-0.042970505
106	0xbbea1d98	-0.007144641
107	0x3c268446	0.010163372
108	0x3d25ef49	0.040511403
109	0xbbf3af86	-0.0074366955
110	0xbcbeb9ac	-0.023281895
111	0xbd220573	-0.039555978
112	0xbd28367d	-0.04106759
113	0xbb07e31f	-0.002073474
114	0xbcbf8e0e	-0.023383167
115	0xbcfaf61b	-0.03063493
116	0xbbdc1f52	-0.006717601
117	0x3cec5463	0.028848832
118	0x3cb40e5f	0.021979509
119	0x3ac0f765	0.0014722167
120	0x3ce8c488	0.028414026
121	0xbd32345c	-0.043506965
122	0x3ce9e9fd	0.028553957
123	0xbcd52082	-0.026016477
124	0xbd12bd49	-0.035825048
125	0x3cc33cc0	0.023832679
126	0xba83a60c	-0.0010043993
127	0xbc39858a	-0.011323342
128	0xbc45585a	-0.01204499
129	0xbc4589b6	-0.012056759
130	0xbc978eb8	-0.01850067
131	0x3d2d99af	0.042382892
132	0xbbe7749a	-0.0070634605
133	0xbc17dd91	-0.009269134
134	0x3c7eeba3	0.01555911
135	0xbbcca71a	-0.006245506
136	0x3d33a7ea	0.043861307
137	0x3c78c3e8	0.015183426
138	0x3c928b57	0.017888708
139	0xbceacaa4	-0.02866108
140	0x3c669420	0.014073402
141	0xbca7f7c3	-0.020503884
142	0x3ca998ee	0.020702805
143	0xbbd87d3a	-0.006606725
144	0xbd285ae5	-0.04110231
145	0xbd241d39	-0.04006693
146	0x3c2c032a	0.010498801
147	0xbce6438a	-0.028108377
148	0x3cb99373	0.022653317
149	0x3d0d2ee5	0.03446855
150	0xbcc1bf79	-0.023650872
151	0x3bf0618a	0.0073358463
152	0x3d2647d7	0.040595856
153	0x3d0d0498	0.03442821
154	0x3bb72f2e	0.005590341
155	0xbc8d8855	-0.017276922
156	0x3c0299c6	0.007971233
157	0x3cd9516e	0.026528087
158	0xbd31d5d9	-0.04341683
159	0xbce890af	-0.028389303
160	0x3ca241f9	0.019806849
161	0xbbfb59a9	-0.0076706004
162	0x3bc49e75	0.006000335
163	0xbd11afc9	-0.035568032
164	0xbcda4426	-0.026643824
165	0xbcfdad14	-0.03096632
166	0x3d207305	0.03917219
167	0x3d32158b	0.043477576
168	0x3cb7ffd0	0.022460848
169	0xbc8d29de	-0.017231878
170	0x3c9a1bff	0.018812178
171	0x3cc4d056	0.024025124
172	0x3d22232e	0.03958433
173	0x3d1c2238	0.03811857
174	0xbae69cc0	-0.0017594323
175	0x3c25f90b	0.010130177
176	0xbafb4bf7	-0.001917242
177	0x3cfcd507	0.030863298
178	0xbc58413e	-0.013199149
179	0xbb0d6398	-0.0021574255
180	0xbb2d9977	-0.0026489177
181	0xbd0715a3	-0.03297962
182	0x3ca5f768	0.020259574
183	0x3ca9b140	0.020714402
184	0xbd1117be	-0.035423033
185	0x3c8e3014	0.01735691
186	0xbcbc3e04	-0.02297879
187	0x3cf19ba1	0.029493155
188	0x3caeb82f	0.02132806
189	0x3cbdae89	0.023154514
190	0x3ce959b8	0.028485164
191	0xbadf1ceb	-0.0017022168
192	0xbc9318cb	-0.017956158
193	0x3ce1f23f	0.027581332
194	0xbcd00fa5	-0.025398085
195	0xbd02b88a	-0.03191427
196	0xbcf9532d	-0.03043517
197	0xbc9dd1c0	-0.019265056
198	0xbc1ce3dc	-0.00957581
199	0x3bdc0f85	0.0067157173
200	0x3d2e8e70	0.042616308
201	0x3c8c57a2	0.01713163
202	0x3c5763da	0.013146365
203	0xbcab4405	-0.020906458
204	0xbc91e131	-0.017807575
205	0xbc7a08a9	-0.015260854
206	0x3c7b6255	0.015343268
207	0xbc38858a	-0.011262307
208	0xbd193705	-0.037405986
209	0x3cd8985c	0.026439838
210	0x3c3ea85e	0.011636822
211	0xbc711ce6	-0.014716363
212	0xbcbb36c1	-0.022853257
213	0xbc516d93	-0.012782472
214	0x3c872483	0.016496902
215	0xbca9869b	-0.020694068
216	0x3c9dd2a5	0.019265482
217	0xbc484047	-0.012222356
218	0xbd057d7a	-0.032590367
219	0xbd29fd66	-0.041501425
220	0x3d26385e	0.0405811
221	0x3bc3ff32	0.0059813494
222	0x3ccffcc4	0.025389083
223	0x3d00e097	0.031464186
224	0x3c17f646	0.009275025
225	0xbc1cbbc4	-0.009566251
226	0xbcd0fa7a	-0.025510062
227	0xbc30aca0	-0.0107833445
228	0xbc6ba49b	-0.014382507
229	0xbb0c3acc	-0.002139735
230	0x3a958170	0.0011406373
231	0xbcb6c1ea	-0.022309262
232	0xbbf82eb3	-0.0075739264
233	0x3d1437f7	0.036186185
234	0x3d240b67	0.040049937
235	0x3d18aff5	0.03727718
236	0xbc489d55	-0.012244542
237	0x3ca1339c	0.01967793
238	0x3cd41aa6	0.025891613
239	0xbd15f18a	-0.036607303
240	0xbc57f581	-0.013181091
241	0x3cc43ccf	0.023954777
242	0x3d17aced	0.03703015
243	0xbd013db5	-0.03155299
244	0x3d009f15	0.031401712
245	0x3d316f02	0.043318756
246	0xbc9df05b	-0.01927965
247	0x3d175dca	0.03695468
248	0x3c1d2494	0.00959124
249	0x3bfa0334	0.0076297764
250	0x3cd484a2	0.02594215
251	0x3c9b1c7c	0.01893448
252	0xbd037716	-0.03209599
253	0x3d23cec8	0.039992124
254	0x3cb05b68	0.02152796
255	0xbce3caa4	-0.027806588

37 f4 [64]
0	0xbb9da217	-0.0048105824
1	0x3cc02659	0.023455786
2	0x3bb0e11a	0.005397928
3	0x3c206a63	0.00979099
4	0xbc50d892	-0.012746947
5	0xbc81289c	-0.015766434
6	0xbc257915	-0.010099669
7	0xbc69c818	-0.0142688975
8	0xbc483fab	-0.012222211
9	0xb99cd811	-0.0002991562
10	0xb8a6c522	-7.952216e-05
11	0x3c0823f1	0.00830935
12	0x3b066205	0.0020505202
13	0xbc98fd41	-0.018675448
14	0xbc070e8a	-0.0082432125
15	0xbc630032	-0.013855027
16	0xbbb01956	-0.005374114
17	0xbcf0d111	-0.029396566
18	0xbc4430ae	-0.011974497
19	0x3afeda1f	0.0019443667
20	0x3ccf62fc	0.025315754
21	0xbcf225a9	-0.029558973
22	0xbcbe27bf	-0.023212312
23	0x3ccba2db	0.024857929
24	0xbbec82b3	-0.007217729
25	0xb9cd8e6e	-0.00039206765
26	0x3b4e317c	0.00314626
27	0x3ca7ea4d	0.020497466
28	0x3cb81fab	0.022476038
29	0xbc815197	-0.015785975
30	0xbcab5e68	-0.02091904
31	0x3ba1e693	0.0049408167
32	0xbd38b601	-0.045095447
33	0x3bb86956	0.0056277914
34	0xbcc82285	-0.024430523
35	0x3b758320	0.003746219
36	0x3c08819f	0.008331685
37	0x3a2073d4	0.00061207754
38	0xbca2a469	-0.019853787
39	0x3d0077c4	0.031364217
40	0xbc3bc61c	-0.011460807
41	0xbd2d6f8d	-0.04234271
42	0x3ba7df02	0.00512302
43	0xbcdf3190	-0.027245313
44	0xbad1e3e6	-0.0016013354
45	0x3ac4c6f2	0.0015012904
46	0x3a996281	0.001170233
47	0x3aeff0d0	0.0018306021
48	0x3d027854	0.031853035
49	0xbad01331	-0.001587486
50	0x3c22aaf7	0.0099284565
51	0xbc828902	-0.015934471
52	0xbcd39980	-0.02583003
53	0xbcc630d7	-0.02419321
54	0xbc8fd017	-0.01755528
55	0xbc7e8cc7	-0.015536494
56	0xbbde3994	-0.006781766
57	0x3ca0ce6a	0.019629676
58	0x3c50baf1	0.012739883
59	0x3c80f89f	0.015743552
60	0xbc3af786	-0.011411553
61	0x3c80469b	0.015658667
62	0x3c10c867	0.008836842
63	0x3d101f67	0.035186198

39 f4 [32, 64, 1, 1]
0	0xbddab970	-0.10679901
1	0xbde55bce	-0.11199151
2	0x3de8e446	0.11371665
3	0xbdff23d6	-0.12458007
4	0xbda7ce5c	-0.08193657
5	0x3b7fa1d4	0.003900637
6	0xbdf902db	-0.12158748
7	0x3d1d6f43	0.038436186
8	0xbd64a4f1	-0.055821363
9	0xbd91a490	-0.07111466
10	0xbd4192d9	-0.047259185
11	0x3c92ed03	0.017935282
12	0xbcaad431	-0.020853134
13	0xbd4be4fe	-0.04977893
14	0x3d52986b	0.05141489
15	0xbd755d16	-0.059903227
16	0x3d3d4722	0.046210416
17	0xbdbc4ec1	-0.091947086
18	0xbdff1531	-0.12455214
19	0xbdccd683	-0.10001852
20	0xbd528a16	-0.05140122
21	0x3c581fa6	0.013191139
22	0x3d7da020	0.061920285
23	0x3dd7c26f	0.10535132
24	0xbdb4eb26	-0.088339135
25	0xbb8dbb6b	-0.0043253205
26	0xbc9d6ae2	-0.019216005
27	0xbdde7947	-0.108629756
28	0xbdcc3709	-0.099714346
29	0xbcd4653f	-0.025927184
30	0x3e04e5c6	0.12978277
31	0x3c753b4d	0.014967752
32	0xbe008157	-0.12549339
33	0x3d1a947e	0.03773927
34	0x3e027f66	0.12743911
35	0x3ccb87ec	0.024845086
36	0xbc9a401e	-0.018829402
37	0xbcd44337	-0.025910957
38	0xbd871c65	-0.06597213
39	0xbd085e79	-0.03329322
40	0x3dd6f6c5	0.10496286
41	0x3c25b2f0	0.010113463
42	0xbdaaac0a	-0.08333595
43	0xbd9d33d9	-0.07675905
44	0xbda2d6e7	-0.079511456
45	0xbd4d7b7c	-0.050166592
46	0x3df8eac3	0.12154152
47	0xbde77adb	-0.1130273
48	0x3cb6e928	0.022327974
49	0xba9a6c38	-0.0011781519
50	0x39a6a840	0.00031787343
51	0x3dac3bb9	0.08409829
52	0x3d879a54	0.06621233
53	0xbd6942e4	-0.056948557
54	0x3d15485e	0.036445968
55	0xbcedbdd4	-0.029021181
56	0x3d207ebe	0.03918337
57	0xbcf26776	-0.02959035
58	0x3db5f7fd	0.08885191
59	0x3d3bc622	0.04584325
60	0xbd630b15	-0.05543049
61	0xbdecbc9c	-0.11559412
62	0x3cfb1bd3	0.030652916
63	0x3df25ba7	0.118338875
64	0xbd9d6896	-0.07685964
65	0x3dae635f	0.08515047
66	0x3c464f6e	0.012103898
67	0x3d9d2257	0.076725654
68	0x3daa0145	0.083010234
69	0xbda7e312	-0.08197607
70	0xbdcc2f6c	-0.099699825
71	0x3cf08cbd	0.029363984
72	0x3c4e5338	0.012593083
73	0xbe05d93c	-0.1307115
74	0xbdd76601	-0.105175026
75	0x3da419ab	0.08012708
76	0xbddde9e9	-0.108356304
77	0xbd13539a	-0.0359684
78	0x3e02c0c0	0.12768841
79	0xbd88f42b	-0.06687196
80	0xbc0b3c77	-0.008498303
81	0xbd1321f1	-0.03592104
82	0x3da94c99	0.08266563
83	0xbcd158a1	-0.025554957
84	0x3d643b64	0.0557207
85	0x3d52c7a8	0.05145994
86	0x3dbf3f10	0.093382
87	0xbdfe0137	-0.124025755
88	0x3cdf24b1	0.027239176
89	0x3d270de3	0.040784728
90	0xbccc588c	-0.024944566
91	0x3cb4c86e	0.022068229
92	0xbd2aec56	-0.041729294
93	0xbd851ec7	-0.06500011
94	0xb923e96d	-0.00015631849
95	0x3db4738a	0.088111
96	0xbbc9d272	-0.0061591202
97	0xbdd1cc0c	-0.10243997
98	0xbdd0fe0d	-0.10204706
99	0xbdf301c8	-0.11865574
100	0x3ddf3ced	0.109002925
101	0xbd88ee3c	-0.066860646
102	0x3d8625e7	0.06550198
103	0xbdf00718	-0.11720103
104	0xbc4d8f60	-0.01254639
105	0xbdcb1738	-0.09916538
106	0xbd3f7828	-0.04674545
107	0xbc9908d2	-0.018680964
108	0xbd37abd4	-0.044841602
109	0x3dc2631b	0.09491559
110	0x3c4554ce	0.012044145
111	0x3ccbcec8	0.024878874
112	0xbdc9382a	-0.098251656
113	0xbd134b28	-0.035960346
114	0xbb927ad7	-0.00447021
115	0xbda16cc5	-0.07882074
116	0x3c3289f0	0.010897145
117	0x3d9594c7	0.07303768
118	0xbd66eda2	-0.056378968
119	0xbd9f3733	-0.077742
120	0xbd3c7de0	-0.04601848
121	0xbde8e708	-0.11372191
122	0xbd123350	-0.035693467
123	0xbd323fbe	-0.04351782
124	0xbdb6a9fe	-0.08919142
125	0x3d85b3ef	0.0652846
126	0xbd9deb6c	-0.07710919
127	0x3d04ed0f	0.03245264
128	0xbce227c8	-0.02760686
129	0x3d90a5f5	0.07062904
130	0x3c6224bd	0.013802704
131	0xbdeee4d2	-0.11664738
132	0xbc40c787	-0.011766321
133	0x3b8dcb06	0.004327181
134	0xbd9f49d6	-0.07777755
135	0x3d02c9fb	0.031930905
136	0xbd5a9839	-0.053367827
137	0x3dff09d3	0.12453046
138	0x3dea22be	0.11432408
139	0xbde34543	-0.11097195
140	0x3d3d4ce2	0.0462159
141	0x3cab158c	0.020884298
142	0xbd7724c5	-0.0603378
143	0x3d8ad5b8	0.06779045
144	0x3da4f501	0.08054543
145	0xbc627344	-0.013821427
146	0x3d902fde	0.0704038
147	0x3e03996b	0.12851493
148	0x3dff8a54	0.12477556
149	0x3d1f0991	0.038827483
150	0x3ddb87e3	0.10719278
151	0x3dc8cd33	0.09804764
152	0x3d61b8ad	0.05510776
153	0x3dcf17b7	0.10111945
154	0x3df25dc0	0.11834288
155	0xbcd917ef	-0.02650067
156	0xbd16fc6d	-0.036861826
157	0xbdccf141	-0.10006953
158	0xbd3494a9	-0.044087086
159	0xbcd1c655	-0.025607267
160	0xbd9816c2	-0.07426216
161	0xbd2ad13d	-0.04170345
162	0x3d7d5349	0.061847005
163	0x3cf064ba	0.029344905
164	0x3d60fef8	0.054930657
165	0xbd8f537c	-0.06998345
166	0xbd93c3f9	-0.07215113
167	0x3bf5cd37	0.00750127
168	0x3ca26d85	0.019827614
169	0xbd8bb80b	-0.06822213
170	0xbdacfd01	-0.08446694
171	0xbd794625	-0.06085791
172	0xbd9e2db9	-0.07723565
173	0x3d933ae1	0.07188965
174	0x3cea1b8c	0.028577588
175	0x3d857c40	0.065178394
176	0xbcc66993	-0.024220264
177	0x3de0cfb6	0.10977118
178	0xbd980884	-0.07423499
179	0xbddd968e	-0.10819732
180	0x3dabc7de	0.08387731
181	0x3dae6733	0.085157774
182	0xbde7b76b	-0.11314281
183	0xbd1f7df8	-0.038938493
184	0x3dc5c4cf	0.09656679
185	0xbdc99074	-0.09842005
186	0x3d7cc382	0.06170989
187	0x3df84556	0.121226
188	0x3d984aab	0.07436117
189	0xbdd42494	-0.10358539
190	0xbd4986fb	-0.049200993
191	0x3c054e06	0.008136278
192	0xbccada1f	-0.024762211
193	0xbd9e2d11	-0.077234395
194	0x3daf5fd0	0.08563197
195	0xbd49da14	-0.04928024
196	0x3cf29103	0.029610163
197	0x3d6c6c84	0.057720676
198	0x3d9ff7c9	0.07810933
199	0xbdbc4fa8	-0.09194881
200	0xbda79fbd	-0.081847645
201	0x3de04453	0.10950532
202	0xbd89ad53	-0.06722512
203	0xbdff0df3	-0.124538325
204	0x3c0e47f6	0.008684149
205	0x3dfd0db5	0.1235613
206	0xbc90ec0a	-0.017690677
207	0x3d6788b5	0.05652686
208	0xbd17c162	-0.03704966
209	0x3d03e25a	0.032198288
210	0xbcb8d732	-0.02256355
211	0xbdecb369	-0.11557657
212	0xbd8bcb53	-0.068258904
213	0x3e009fab	0.12560908
214	0x3df9b0d2	0.12191929
215	0x3d728f85	0.059218902
216	0xbe0068e8	-0.12540019
217	0xbd8a2637	-0.0674557
218	0xbcef21d1	-0.02919093
219	0xbdb3a91e	-0.08772491
220	0x3dee6999	0.11641235
221	0xbd86eb36	-0.06587832
222	0x3dd634fc	0.10459325
223	0xbdaba4c4	-0.08381036
224	0x3d449427	0.04799285
225	0xbc2f6fdd	-0.010707823
226	0x3cde5837	0.027141673
227	0x3daa3eb0	0.08312738
228	0xbcaa1edc	-0.020766668
229	0xbdee9909	-0.11650283
230	0xbddb449e	-0.10706447
231	0x3d4b8f6e	0.049697332
232	0x3c866b43	0.016408568
233	0x3d7f4f1c	0.062331304
234	0x3db20f4b	0.08694323
235	0xbc78aaa4	-0.015177403
236	0x3dadd9f8	0.0848884
237	0xbc86a683	-0.01643682
238	0xbd666e09	-0.05625728
239	0x3da8f56a	0.08249934
240	0xbd84c1d8	-0.06482285
241	0xbc783c87	-0.01515115
242	0xbda731f2	-0.08163823
243	0x3cfd948c	0.030954622
244	0xbd923b18	-0.071401775
245	0xbcb1e852	-0.021717224
246	0xba8c3585	-0.0010697102
247	0xbdadaa54	-0.08479753
248	0xbd655151	-0.055985752
249	0x3d8bccad	0.06826148
250	0xbdaff102	-0.085908905
251	0xbd80b561	-0.06284595
252	0x3dcc601f	0.09979271
253	0x3df5f649	0.12009866
254	0xbdc04d22	-0.09389712
255	0xbd48f449	-0.049061093

40 f4 [32]
0	0x3d1ec177	0.03875872
1	0x3d2e800e	0.04260259
2	0xbcadda9a	-0.021222401
3	0x3c43eb05	0.0119578885
4	0xbbdeed64	-0.0068032015
5	0x3ca5da66	0.020245742
6	0x3b940ec7	0.004518363
7	0x3c8ea5a9	0.017412977
8	0xbada6b5f	-0.0016664079
9	0x3cae2185	0.021256218
10	0xbd0aed91	-0.033917967
11	0x3cdc704f	0.026909022
12	0xbb8cba2e	-0.0042946553
13	0x3cf1fd1e	0.029539641
14	0x3d077f8e	0.03308063
15	0xbb9c712f	-0.0047742347
16	0xbcb0ad62	-0.02156705
17	0xbc830ea8	-0.0159982
18	0xbcae095e	-0.021244701
19	0xbb9b7be3	-0.004744993
20	0xbc7a3317	-0.01527097
21	0x3c565877	0.013082615
22	0xbb7b96db	-0.0038389477
23	0xbbef1ddf	-0.007297262
24	0x3ca80b91	0.020513328
25	0xbb42b5e4	-0.0029710466
26	0xbbbe6e29	-0.005811472
27	0x3bd06b12	0.00636042
28	0xbb5b698d	-0.0033479661
29	0x3cb38417	0.021913571
30	0x3cfa9349	0.03058781
31	0x3b0ef65d	0.0021814324

42 f4 [64, 32, 3, 3]
0	0xbcfe8b20	-0.0310722
1	0x3ce77ba1	0.028257193
2	0xbd169272	-0.036760755
3	0xbd0da4b7	-0.034580912
4	0x3b9792e7	0.0046256664
5	0xbd317f74	-0.04333444
6	0x3afc8631	0.0019266066
7	0xbd08ab42	-0.03336645
8	0xbcd89389	-0.026437538
9	0x3cb54c4b	0.022131106
10	0x3cec20fe	0.028824326
11	0x3d2cf3e9	0.0422248
12	0x3c9a7e5a	0.018859077
13	0xbd191002	-0.037368782
14	0xbd4b49a3	-0.049630772
15	0xbce32688	-0.027728334
16	0xbd45c349	-0.04828194
17	0x3cdf1a02	0.027234081
18	0xbceaa137	-0.028641326
19	0xbc6c16de	-0.014409749
20	0xbca70596	-0.020388406
21	0x3ccc4f32	0.024940107
22	0xbd5622bc	-0.05227922
23	0xbcf1eba9	-0.029531317
24	0x3cb10830	0.02161035
25	0x3d40df0f	0.047087725
26	0xbcf18896	-0.029484075
27	0xbc96bbc7	-0.018400086
28	0xbc222bfb	-0.009898181
29	0xbd41a499	-0.047276113
30	0xbd49b78b	-0.049247306
31	0xbd16c846	-0.03681209
32	0xbbf51aae	-0.007479987
33	0x3bc9030e	0.0061343974
34	0xb9d549a2	-0.00040681387
35	0xbcfe1130	-0.031014055
36	0xbd4b8f2d	-0.04969709
37	0x3d40e387	0.047091987
38	0xbcff6352	-0.03117529
39	0xbc0faf6c	-0.008769851
40	0x3d1c0deb	0.03809921
41	0x3d4303d0	0.047611058
42	0xbd7a754f	-0.06114703
43	0x3d3f2525	0.046666283
44	0x3d24045e	0.040043227
45	0x3d4e3774	0.050345853
46	0xbce73c5b	-0.028227022
47	0x3cfd3817	0.030910535
48	0xbc57af63	-0.013164374
49	0xbd0e5ce6	-0.034756564
50	0xbd00e830	-0.03147143
51	0xbd2cec3e	-0.042217486
52	0x3d2bedf2	0.04197497
53	0x3d6a627e	0.057222836
54	0xbd5b31ae	-0.053514175
55	0xbd71a6f2	-0.058997102
56	0xbd5c06a5	-0.053717274
57	0xbd3930ca	-0.045212545
58	0x3b865d6c	0.004100492
59	0x3ce290f3	0.027657008
60	0x3d07458f	0.03302532
61	0xbd1ad676	-0.037802182
62	0xbd3fd98e	-0.046838336
63	0xbd55f6b3	-0.052237224
64	0xbcfefb3a	-0.031125654
65	0xbaa69b56	-0.0012711089
66	0x3cfb711a	0.03069358
67	0x3d4f606d	0.05062907
68	0xbcc6fca3	-0.024290388
69	0xbc27b334	-0.010235596
70	0xbb8f3e11	-0.0043714126
71	0xbd111a5a	-0.03542552
72	0xbcd9ad92	-0.026572023
73	0xbc551209	-0.013004788
74	0x3d3076af	0.043081935
75	0x3c2df549	0.010617563
76	0xba66a529	-0.00087984145
77	0x3cd99b76	0.026563387
78	0x3c2133d3	0.009839016
79	0xbd212316	-0.0393401
80	0xbd3f3307	-0.046679523
81	0x3b9d97c1	0.0048093502
82	0x3d3f546b	0.046711367
83	0xbb3bd047	-0.0028658079
84	0xbc71b2b4	-0.014752079
85	0x3bdcca54	0.0067379866
86	0xbc928ab6	-0.017888408
87	0x3ca4762d	0.020075882
88	0x3d5648a4	0.05231537
89	0xbd2a418e	-0.041566424
90	0x3c3c7e6b	0.01150475
91	0x3c1b9481	0.009495855
92	0xbcbdd1a1	-0.023171248
93	0x3b9ef68e	0.004851169
94	0xbd7bfdd9	-0.061521385
95	0x3c94d888	0.018169656
96	0x3c863c32	0.016386125
97	0xbc260461	-0.01013288
98	0x3d131a66	0.035913847
99	0x3d6cb2a9	0.05778757
100	0xbcdc37ad	-0.026882017
101	0xbd28165a	-0.04103694
102	0xbb83973d	-0.0040158317
103	0x3d09a425	0.033603806
104	0xbbe85dd6	-0.0070912642
105	0xbc741aaf	-0.01489894
106	0xbd1bfefc	-0.03808497
107	0x3cb2b543	0.021814948
108	0x3c3bc774	0.011461128
109	0x3d2ed4c5	0.04268338
110	0x3c961abc	0.018323295
111	0xbcb0cedb	-0.021583011
112	0x3c2f0f9f	0.010684877
113	0x3d6f57d8	0.058433384
114	0x3c8286a7	0.015933348
115	0xbba60bbb	-0.0050673163
116	0x3cbc0e23	0.02295596
117	0x3d3c34ff	0.04594898
118	0xbd7c2ea6	-0.061567925
119	0x3cf93c09	0.030424135
120	0x3d46d3c8	0.048541814
121	0xbcfc5f70	-0.030807227
122	0xbd04ec36	-0.03245183
123	0xbd0c2b54	-0.03422101
124	0x3cb43842	0.021999482
125	0xbc930521	-0.017946782
126	0xbcd4f346	-0.025994908
127	0x3d34031b	0.043948274
128	0xbd09c52d	-0.033635307
129	0x3b4f3d0d	0.0031622082
130	0xbd11daf4	-0.0356092
131	0xbd3b3b4f	-0.045710858
132	0xbc01c986	-0.007921582
133	0x3bcb4118	0.006202828
134	0x3cedabff	0.029012678
135	0xbc2825f2	-0.010262953
136	0xbd633ac8	-0.05547598
137	0xbccf0bc2	-0.025274161
138	0xbbf30ff3	-0.007417673
139	0xbd530eaf	-0.051527675
140	0x3d78f2a8	0.06077829
141	0x3d1200ee	0.035645418
142	0x3d763947	0.060113218
143	0x3c377bd6	0.011198958
144	0xbd75d657	-0.060018864
145	0xbc1821e7	-0.009285427
146	0xbce88c07	-0.028387083
147	0xbcc52a26	-0.02406795
148	0x3d4c3c1e	0.04986202
149	0x3c1b1dfa	0.009467596
150	0xbc307786	-0.010770684
151	0xbc5d967f	-0.013524651
152	0xbd24f317	-0.04027089
153	0x3ce5b078	0.028038248
154	0xbcf79db4	-0.030226566
155	0x3b950dbf	0.004548758
156	0x3cb3dae9	0.02195497
157	0xbcdb4965	-0.026768396
158	0xbc92543a	-0.017862428
159	0xbcfae588	-0.030627027
160	0x3d39c595	0.045354445
161	0x3d2cfc4a	0.04223279
162	0xbd62c545	-0.055363912
163	0xbb8dc8ac	-0.0043269005
164	0x3ce67cf1	0.028135749
165	0x3d6da20a	0.05801586
166	0x3ce0cdec	0.027441941
167	0x3d4bdf04	0.04977323
168	0xbcce6049	-0.025192397
169	0x3c4727c0	0.012155473
170	0x3d58b665	0.05290832
171	0xbc7aa2b0	-0.015297577
172	0xbbe53921	-0.0069953357
173	0xbd26f93e	-0.04076504
174	0x3c9ac58d	0.018893028
175	0x3d245eea	0.04012958
176	0xbd203e05	-0.039121646
177	0x3c8737c5	0.016506085
178	0x3d04bf4d	0.032409
179	0xbc85e115	-0.016342679
180	0xbd37c79b	-0.044868093
181	0xbd1bcd8d	-0.038037825
182	0x3a693df5	0.0008897477
183	0x3c999f54	0.018752731
184	0x3ca2be01	0.019865992
185	0x3d171871	0.036888544
186	0x3d465f01	0.048430447
187	0xbba678f5	-0.005080337
188	0xbd48df39	-0.049041007
189	0x3c468822	0.0121174175
190	0x3d44c7df	0.048042174
191	0xbd313bdf	-0.04326999
192	0xbc9d6b1f	-0.019216118
193	0x3ce5735a	0.028009105
194	0xbd6e58e4	-0.05819024
195	0xbbaf5dd3	-0.005351761
196	0x3bffb498	0.007803511
197	0x3c37dbe6	0.0112218615
198	0xbd39501d	-0.045242418
199	0xbcb56416	-0.022142451
200	0x3d7945fa	0.06085775
201	0x3a7bcb6e	0.00096052035
202	0xbc985f3d	-0.0186001
203	0x3c86b2ce	0.016442683
204	0xbd1e455b	-0.03864036
205	0xbd43d6bc	-0.04781221
206	0xbd68b8a0	-0.056816697
207	0x3cb4630d	0.022019887
208	0x3cdd0f00	0.026984692
209	0x3d428ef3	0.04749961
210	0x3ca06c23	0.019582814
211	0xbcfb4e4d	-0.030676985
212	0x3d71bb68	0.059016615
213	0xbc706848	-0.0146733
214	0x3ce85cb3	0.028364515
215	0x3ce49668	0.02790375
216	0x3d7052a7	0.058672573
217	0x3c9c7dfc	0.019103043
218	0xbc6e8070	-0.014556989
219	0x3c72c4fc	0.014817473
220	0x3d20506f	0.039139207
221	0xbc315cfc	-0.010825392
222	0x3c0cee55	0.008601745
223	0x3ceba671	0.028765889
224	0x3cd2c478	0.02572845
225	0x3cf0be07	0.029387487
226	0xbd3288ae	-0.04358738
227	0xbca86f6a	-0.020560939
228	0xbd4449ee	-0.047922067
229	0xbd351a5d	-0.044214595
230	0xbd32b56a	-0.04363004
231	0x3d1acd6e	0.03779357
232	0x3d33c5e5	0.0438899
233	0x3c96fd1d	0.01843124
234	0xbd72fa0b	-0.05932049
235	0x3d43ec5e	0.04783284
236	0xbcccd1bf	-0.025002358
237	0x3bb7f0ad	0.0056134076
238	0xbd109f7d	-0.03530835
239	0x3d5ae873	0.053444337
240	0xbad4a0d0	-0.0016222242
241	0x3c63192a	0.01386098
242	0x3d4d9599	0.050191496
243	0xbcacd78d	-0.021098876
244	0xbcaf7242	-0.021416787
245	0xbbbd2f81	-0.005773485
246	0xbd6cd87e	-0.05782365
247	0x3d13e5f9	0.03610799
248	0x3cf5470e	0.029941108
249	0xbd5c5d03	-0.05379964
250	0x3c2d5f64	0.010581825
251	0x3d03ea63	0.03220595
252	0xbc27f69e	-0.010251669
253	0xbd1f4e1f	-0.03889286
254	0xbcadb684	-0.021205194
255	0xbd5bed9c	-0.0536934

43 f4 [64]
0	0x3b2625cf	0.0025352126
1	0x3c4a7d32	0.01235895
2	0x3bc4e787	0.0060090455
3	0x3d149721	0.03627694
4	0x3c88e53f	0.016710876
5	0x3cd8a6cc	0.026446722
6	0x3bcfb4be	0.006338685
7	0xbc2745cd	-0.010209513
8	0x3ad4cb56	0.0016234915
9	0xbb865fbc	-0.004100768
10	0xbd3b87dc	-0.045783862
11	0x3ceb0198	0.028687283
12	0xbb74e887	-0.0037370042
13	0xba90e79a	-0.0011055351
14	0xbc03e1b0	-0.008049414
15	0xbb959aa3	-0.0045655533
16	0x3d3b8702	0.04578305
17	0x3c8b3ea3	0.016997641
18	0xbbe9f4fb	-0.0071397997
19	0xbc82cd09	-0.015966909
20	0xbcac5f50	-0.021041542
21	0xbbdbca21	-0.0067074453
22	0xbc8f4e67	-0.01749344
23	0xbc991f2f	-0.018691627
24	0xbcb61d76	-0.022230845
25	0xbcb88c19	-0.022527741
26	0x3c4d6e05	0.012538438
27	0xbcca709b	-0.024711898
28	0x3b0d8e3d	0.0021599673
29	0x3c641a1d	0.0139222415
30	0x3be491ed	0.0069754035
31	0x3c29fe27	0.010375536
32	0xbca49990	-0.020092756
33	0x3c89a7c6	0.016803633
34	0x3a549426	0.0008109234
35	0xbb40211c	-0.002931661
36	0x3cf71fe9	0.030166583
37	0x3bc867b7	0.0061158794
38	0xbbc5d0b7	-0.0060368436
39	0x3c4e1af4	0.012579668
40	0xbcd94517	-0.026522202
41	0x3bdbab28	0.006703753
42	0x3c1bf7e2	0.009519549
43	0x3cd8c80f	0.026462583
44	0x3c6934e4	0.0142338015
45	0x3b5fa707	0.0034126656
46	0xbca93974	-0.020657279
47	0xbbb573e9	-0.005537499
48	0x3c0d5ff0	0.00862883
49	0xbba288f6	-0.0049601747
50	0xbc152574	-0.009103168
51	0xbcf14418	-0.029451415
52	0xbb806adf	-0.00391899
53	0x3c19cb5b	0.009386863
54	0xbce62019	-0.028091477
55	0x3b5245ad	0.0032084987
56	0xbbcc8d11	-0.0062424024
57	0xbc8a1d45	-0.01685966
58	0xbc77a2f7	-0.015114537
59	0x3ce6e140	0.02818358
60	0xbc438644	-0.011933867
61	0xb75e798c	-1.3260531e-05
62	0x3d500961	0.050790194
63	0x3c29912a	0.010349551

conv1.weight f4 [64, 3, 3, 3]
0	0xbd8ac992	-0.06776728
1	0xbd8341bc	-0.06409022
2	0x3e16ea39	0.14737786
3	0xbd520620	-0.051275373
4	0xbd300f48	-0.042983323
5	0x3e283045	0.16424663
6	0xbcf6b9f8	-0.030117974
7	0xbe0f1530	-0.13972926
8	0xbe3df151	-0.18549086
9	0xbc404f50	-0.01173766
10	0xbe00f912	-0.12595013
11	0xbdccc410	-0.099983335
12	0xbde9a113	-0.114076756
13	0xbc5c0800	-0.013429642
14	0x3d8e6996	0.06953733
15	0xbdff6be7	-0.124717526
16	0xbda07a08	-0.078357756
17	0xbd2fde80	-0.042936802
18	0xbe020540	-0.12697315
19	0xbd8956b2	-0.06705989
20	0x3e3187d9	0.17336978
21	0x3c98a130	0.018631548
22	0xbd862244	-0.065495044
23	0x3dc26f2a	0.09493859
24	0xbd31a484	-0.043369785
25	0x3deea32a	0.11652215
26	0x3d1f956c	0.03896086
27	0x3e2d1451	0.16902281
28	0x3e23fa53	0.1601346
29	0x3da2d9aa	0.079516724
30	0x3e3044e7	0.17213784
31	0x3c9ea560	0.019365966
32	0x3dcd1006	0.10012822
33	0x3df46c4a	0.11934717
34	0xbe1c135c	-0.1524176
35	0xbe298b64	-0.1655708
36	0x3dbb1262	0.091343656
37	0x3e08f5dd	0.1337504
38	0xbe08e8ea	-0.133701
39	0xbd645aec	-0.055750772
40	0xbc0086e0	-0.007844657
41	0xbd32b9e0	-0.043634295
42	0xbe3b3a99	-0.18284072
43	0x3e3ff3c9	0.1874534
44	0xbe3efefc	-0.18651956
45	0x3c9bdb08	0.01902534
46	0xbd9ebf1c	-0.07751295
47	0x3db66f86	0.0890799
48	0xbdbbfa8b	-0.09178647
49	0xbb62a000	-0.003458023
50	0xbc939a88	-0.018018022
51	0xbba13b80	-0.004920423
52	0x3de059da	0.10954638
53	0xbd9cae9b	-0.07650491
54	0xbd8b9ab4	-0.06816617
55	0xbb11c740	-0.0022244006
56	0x3d9b465e	0.07581781
57	0xbe1b3b8e	-0.15159437
58	0xbe3df58a	-0.18550697
59	0x3e0355ad	0.12825651
60	0x3bb2f360	0.0054611415
61	0x3e4399f3	0.19101696
62	0x3d69664c	0.056982324
63	0xbe35b112	-0.17743328
64	0xbdf54d86	-0.11977677
65	0x3e15ca47	0.14627944
66	0x3c5321e0	0.012886494
67	0xbdff9183	-0.12478926
68	0xbe12f148	-0.14349854
69	0x3e1aeb7b	0.15128891
70	0xbd76ec90	-0.060284197
71	0xbe2b2ba6	-0.1671587
72	0x3bf25600	0.007395506
73	0xbdda25a6	-0.10651712
74	0x3e391587	0.18074618
75	0xbe449495	-0.19197305
76	0x3dfdc54a	0.123911455
77	0xbd771dd0	-0.060331166
78	0x3c015050	0.007892683
79	0x3e21c605	0.15798195
80	0xbe38ae3d	-0.18035217
81	0x3dd11d3e	0.10210656
82	0x3d62c020	0.055359006
83	0xbe0fc6d8	-0.14040697
84	0x3df394e2	0.118936315
85	0x3aa15f80	0.0012311786
86	0xbddab7ff	-0.10679626
87	0x3e3631f7	0.17792498
88	0x3e2611d3	0.16217737
89	0x3dc99972	0.098437205
90	0x3d929aa6	0.07158403
91	0xbe21008c	-0.15722865
92	0xbe015da9	-0.12633385
93	0xbe3bbbfc	-0.18333429
94	0x3ded1a6e	0.11577307
95	0x3e44e03b	0.19226162
96	0x3d95c55e	0.073130354
97	0xbcd82460	-0.026384532
98	0x3e317367	0.17329179
99	0xbd077eac	-0.033079788
100	0x3e2ece5b	0.17070906
101	0x3db1be16	0.08678834
102	0xbe0fa04b	-0.1402599
103	0xbe3ceeb4	-0.18450433
104	0xbdab8897	-0.08375662
105	0xbd8a32c3	-0.06747963
106	0x3ce20258	0.027589008
107	0xbde13b46	-0.10997634
108	0xbe03c834	-0.1286934
109	0x3dff0c02	0.12453462
110	0xbdedb5ca	-0.11606939
111	0x3e125adf	0.14292477
112	0x3d4aee74	0.049543813
113	0xbe0ba9bd	-0.13638969
114	0xbd5c80dc	-0.053833827
115	0x3dd4a9ce	0.1038395
116	0x3e0be377	0.1366099
117	0x3e40a45d	0.188127
118	0x3dc4f25e	0.0961654
119	0x3e24fed9	0.16112842
120	0xbc3d18e0	-0.011541575
121	0x3dcf1092	0.101105824
122	0xbccd7cf0	-0.025083989
123	0xbda3737f	-0.079810135
124	0xbc02f7a0	-0.007993609
125	0x3ba599a0	0.005053714
126	0xbe38ce5f	-0.18047474
127	0x3de0d90e	0.109789
128	0x3d92a95e	0.071612105
129	0xbd686da0	-0.05674517
130	0x3cd27f88	0.025695577
131	0x3c1b98f0	0.009496912
132	0x3e2cf65b	0.16890852
133	0xbe24d48f	-0.1609671
134	0xbe1221d2	-0.14270714
135	0xbe07ebb3	-0.13273506
136	0xbe006f37	-0.12542425
137	0x3d16fa6c	0.036859915
138	0x3e17a21b	0.14807932
139	0xbd841f84	-0.06451324
140	0x3e09c1d3	0.13452844
141	0x3df49c36	0.11943857
142	0xbdb70083	-0.089356445
143	0xbe0a93cc	-0.13532943
144	0x3d2cde6c	0.042204306
145	0x3dc06936	0.093950674
146	0xbc053e50	-0.008132532
147	0x3c75ff20	0.01501444
148	0x3dd15b32	0.10222472
149	0x3d061c14	0.03274162
150	0x3e42d9cb	0.19028394
151	0x3e2bae0f	0.16765617
152	0x3d4f3018	0.050582975
153	0x3dec4cd2	0.1153809
154	0xbdaad739	-0.08341832
155	0xbbf72a80	-0.007542908
156	0x3e1bcd37	0.15215002
157	0xbe126a58	-0.1429838
158	0xbd3ffa4c	-0.04686956
159	0x3dd59326	0.10428457
160	0xbd03d4b4	-0.03218527
161	0xbd8d1600	-0.06888962
162	0xbc9c6348	-0.01909031
163	0xbe174d3d	-0.14775558
164	0x3d857afa	0.065175965
165	0x3e01bd19	0.12669791
166	0x3dddf526	0.10837774
167	0xbdd16fef	-0.10226428
168	0x3df8889a	0.1213543
169	0x3e435655	0.19075902
170	0xbe312c6a	-0.17302099
171	0xbdcbab87	-0.099448256
172	0xbc401c80	-0.011725545
173	0x3e3ee411	0.18641688
174	0xbe431664	-0.1905151
175	0x3e0f00bb	0.13965122
176	0xbde8cae4	-0.11366823
177	0x3cfeab50	0.031087548
178	0xbdd4e2ab	-0.10394796
179	0xbd7c7fcc	-0.061645314
180	0xbdf06a5e	-0.11739038
181	0xbd2a9880	-0.04164934
182	0xbe13901b	-0.1441044
183	0xbdb2c259	-0.08728475
184	0xbd22e984	-0.03977348
185	0xbd12d5e8	-0.03584853
186	0xbde29dbe	-0.11065243
187	0xbd694ccc	-0.056958005
188	0xbe12cf7d	-0.14336963
189	0x3e398559	0.18117274
190	0xbe33992a	-0.17538896
191	0x3cba5c18	0.022748992
192	0xbd181324	-0.03712763
193	0xbd8f9c42	-0.07012226
194	0x3c524240	0.012833178
195	0xbe423308	-0.1896478
196	0x3dd25982	0.102709785
197	0x3e3ad54f	0.18245433
198	0xbe082cfe	-0.13298413
199	0x3e2099ad	0.15683623
200	0x3e264277	0.16236292
201	0xbc03f0f0	-0.008053049
202	0x3e3299c1	0.17441465
203	0x3d92469e	0.071423754
204	0x3d4f089c	0.05054532
205	0xbe0f8c5e	-0.1401839
206	0x3e061719	0.13094749
207	0x3d51a45c	0.051182136
208	0xbe3a9d94	-0.18224174
209	0x3dd7f856	0.10545413
210	0x3d82941a	0.063759044
211	0x3d856cca	0.065148905
212	0x3e08b2b7	0.13349424
213	0x3dd3607a	0.10321136
214	0x3c876a48	0.016530171
215	0xbe2ba760	-0.16763067
216	0xbdf83f8b	-0.12121495
217	0x3e101e5f	0.14074086
218	0xbe2a81a6	-0.1665102
219	0xbddfe2ba	-0.109319165
220	0x3e41acab	0.18913524
221	0x3d8fb566	0.07017021
222	0xbdc5b722	-0.096540704
223	0xbd1113fc	-0.03541945
224	0x3cb90310	0.022584468
225	0x3c1d4c40	0.009600699
226	0xbc5d5070	-0.013507947
227	0xbd9637fe	-0.073348984
228	0xbe1e41f5	-0.15454848
229	0x3e080499	0.13283004
230	0xbe011942	-0.12607291
231	0xbd3dc284	-0.046328083
232	0x3d90a11a	0.07061978
233	0xbd1a1fe0	-0.037628055
234	0xbc9dc598	-0.01925926
235	0xbd1f8ba4	-0.03895153
236	0xbdb01bbb	-0.08599039
237	0x3de1ac66	0.110192105
238	0x3dac6742	0.08418132
239	0x3b897520	0.0041948706
240	0x3d0715ac	0.032979652
241	0x3e41af9f	0.1891465
242	0x3d62e188	0.055390865
243	0x3dae176e	0.085005626
244	0xbd9b54d8	-0.07584542
245	0x3d559c94	0.052151278
246	0x3d6eddb4	0.0583169
247	0xbdb7099e	-0.08937381
248	0x3d96724a	0.07346018
249	0x3dcab1ea	0.09897216
250	0xbdac0a2e	-0.08400379
251	0xbe2a9889	-0.1665975
252	0xbe0bd8b6	-0.13656887
253	0xbe0ba292	-0.13636234
254	0xbdf57d21	-0.11986757
255	0xbde685b4	-0.112559706

output.0.weight f4 [1, 64, 3, 3]
0	0xbd1b2143	-0.037873518
1	0xbcfde366	-0.030992221
2	0x3b901a18	0.004397642
3	0x3cc46312	0.023973022
4	0xbcbbb416	-0.02291302
5	0x3c33f72c	0.010984223
6	0xbcccf3ee	-0.025018658
7	0x3c3c99d4	0.011511285
8	0x3c8de9f2	0.017323468
9	0xbbbb9118	-0.0057240836
10	0xbb6df080	-0.003630668
11	0x3c6da930	0.0145056695
12	0xbc5df1d0	-0.013546422
13	0x3cc7b992	0.024380479
14	0x3caadff2	0.020858739
15	0xbcfdabb0	-0.030965656
16	0x3c9020ee	0.017593827
17	0xbc05fd2c	-0.008178037
18	0x3ce0fbbe	0.02746379
19	0x3c67f72c	0.014158051
20	0xbd18fa37	-0.037348
21	0x3cf12162	0.029434863
22	0xbd26d93b	-0.04073451
23	0x3d296b6b	0.041362207
24	0xbcf7d778	-0.03025411
25	0x3c894320	0.01675564
26	0x3cfee172	0.03111336
27	0xbd0118c6	-0.031517766
28	0x3cbc8992	0.023014817
29	0x3c9f9c80	0.019483805
30	0x3c913d96	0.017729562
31	0xbac76be0	-0.0015214644
32	0xbd00ade8	-0.03141585
33	0xbd14489f	-0.03620207
34	0x3d1e9c0b	0.038723033
35	0xbb34be50	-0.0027579255
36	0xbc582d00	-0.013194323
37	0xbd0019e0	-0.031274676
38	0x3cfd6e96	0.03093652
39	0x3c8dc0c0	0.017303824
40	0x3c5a1fbc	0.01331323
41	0x3cdfce4e	0.027320053
42	0x3d0a7e2f	0.033811744
43	0xbcc516c0	-0.0240587
44	0xbb46fe50	-0.0030363984
45	0x3c932f2a	0.017966826
46	0x3d1c9b8f	0.03823429
47	0x3cf9ee1a	0.030509043
48	0x3d29c9fd	0.041452397
49	0xbcf39f78	-0.029739127
50	0xbc3f0646	-0.011659211
51	0x3b8c3560	0.0042788237
52	0x3cbcc64a	0.02304377
53	0x3d22bd29	0.03973118
54	0xbcb49918	-0.022045657
55	0xbcd98c88	-0.026556268
56	0x3d0e2e2f	0.034712013
57	0x3cca74de	0.02471393
58	0x3d16f46f	0.036854204
59	0xbd116a5e	-0.03550183
60	0x3d28985d	0.04116093
61	0x3d04d135	0.032426078
62	0xbd07eee2	-0.0331868
63	0x3d05df3b	0.032683592
64	0xbd22dabe	-0.03975939
65	0x3d0ceb5f	0.034404155
66	0xbc51b3d0	-0.012799218
67	0xbce442e8	-0.027863935
68	0x3c0afff4	0.008483876
69	0x3c722c74	0.014781106
70	0x3c3a5250	0.011372164
71	0x3ba72b58	0.0051016025
72	0x3aacf520	0.0013195612
73	0xbc934183	-0.017975574
74	0x3bedae38	0.0072534345
75	0xbd2616bb	-0.04054902
76	0x3d0b5151	0.034013096
77	0x3c7d7134	0.015468884
78	0x3cfaddd6	0.030623358
79	0xbd07cee8	-0.033156306
80	0xbd028603	-0.031866085
81	0x3a278340	0.0006390102
82	0xbc86cd93	-0.016455447
83	0x3c697970	0.014250144
84	0x3afb2ae0	0.0019162558
85	0x3c50385c	0.01270875
86	0xbca66fab	-0.02031692
87	0x3b8100a8	0.003936846
88	0x3d1c9d85	0.03823616
89	0xbc4b0ef6	-0.012393704
90	0xbd04f47f	-0.032459732
91	0x3c9bfde0	0.019041955
92	0x3d277485	0.040882606
93	0xbcc2b980	-0.023770094
94	0x3b32b180	0.0027266443
95	0xbd0b3976	-0.033990346
96	0xbc134794	-0.0089892335
97	0xbba9b588	-0.005179111
98	0xbcdf8d5b	-0.027289083
99	0xbcc14710	-0.023593456
100	0x3ccf77c6	0.025325667
101	0xbce15c0b	-0.02750971
102	0xbcadcda6	-0.021216225
103	0x3d0f5d39	0.035001013
104	0xbd27d7d6	-0.04097732
105	0xbc6c7f46	-0.014434641
106	0xbc531906	-0.012884384
107	0xbce5a020	-0.028030455
108	0x3c9cdbda	0.019147802
109	0x3cf183de	0.029481824
110	0xbc61615c	-0.013756122
111	0xbca86b0e	-0.02055886
112	0xbc6874e6	-0.014188027
113	0x3cf3b34a	0.029748578
114	0x3d23074b	0.039801877
115	0xbc208690	-0.009797707
116	0xbd13c00e	-0.03607183
117	0xbcf1f7c3	-0.029537087
118	0x3ce5a25e	0.028031524
119	0xbcc23fa0	-0.02371198
120	0xbd1e665f	-0.038671847
121	0x3cf90bda	0.03040116
122	0xbd23eedb	-0.040022712
123	0xbd0dfb14	-0.034663275
124	0xbc1a5214	-0.009418983
125	0xbbd90dc0	-0.0066239536
126	0xb94c5700	-0.00019487366
127	0x3cf5647a	0.029955138
128	0xbc968e36	-0.018378358
129	0xbd15a16e	-0.036530904
130	0xbd0ad93b	-0.033898573
131	0xbca04ca8	-0.019567803
132	0x3c1dbb00	0.009627104
133	0x3c9e5da6	0.019331764
134	0x3cc06f2e	0.023490515
135	0x3c5fe84c	0.013666224
136	0xbbe66848	-0.0070314743
137	0x3c63d7ac	0.013906401
138	0x3d0afe6f	0.033934053
139	0xbcc0b908	-0.02352573
140	0xbb39ea50	-0.002836842
141	0x3c575200	0.013142109
142	0x3d14fb65	0.03637256
143	0xb91a0b00	-0.00014690682
144	0xbd27485b	-0.040840488
145	0xbc7665f0	-0.015038952
146	0xbd1e8d8a	-0.0387092
147	0x3c09b2ec	0.008404475
148	0xbc965f40	-0.018355966
149	0x3cba04e2	0.022707406
150	0x3c3e09a0	0.0115989745
151	0x3cefca0a	0.029271144
152	0x3d2a2ed9	0.041548584
153	0x3c3bffc4	0.0114745535
154	0xbc2c1540	-0.010503113
155	0x3cefbdaa	0.029265244
156	0x3c9927ee	0.018695798
157	0xbd13a8fa	-0.03604982
158	0x3cdb7ef6	0.026793938
159	0xbb151e00	-0.0022753477
160	0xbd285d50	-0.041104615
161	0x3cb9925e	0.022652801
162	0xbcd30673	-0.025759911
163	0x3d1ca451	0.03824264
164	0x3c0100fc	0.00787377
165	0xbc3d8cb6	-0.011569193
166	0x3ba48db8	0.005021777
167	0xbc73e330	-0.014885709
168	0xbbbe1e58	-0.005801957
169	0xbca28286	-0.019837629
170	0xbcf59253	-0.029977
171	0x3bd11cb8	0.0063815974
172	0xbce7283b	-0.028217426
173	0x3a3d7940	0.00072278455
174	0x3d22cfb1	0.03974885
175	0x3cfe892e	0.031071272
176	0x3b9f7c68	0.0048671253
177	0x3b96a4e0	0.0045972914
178	0x3cb9b01a	0.02266698
179	0xbce9c18b	-0.028534671
180	0x3c8d52ca	0.017251391
181	0x3c9b9b96	0.018995088
182	0xbc40ff9c	-0.011779692
183	0xbc8958e8	-0.016766027
184	0x3d102063	0.035187136
185	0xbba1b368	-0.004934717
186	0x3d020481	0.031742577
187	0x3c7b05ac	0.0153211765
188	0x3d10f8a3	0.03539337
189	0x3b8e8220	0.004349008
190	0xbd27c413	-0.040958475
191	0x3ac016e0	0.0014655255
192	0x3b9f15c0	0.0048548877
193	0x3bbc2520	0.0057417303
194	0x3d176d69	0.036969576
195	0xbcb17aee	-0.021665063
196	0xbc7fcfc6	-0.015613502
197	0xbce2ead0	-0.027699858
198	0x3cdcc95a	0.02695148
199	0x3cfbd5d2	0.030741606
200	0x3b71e650	0.0036910959
201	0x3c781484	0.01514161
202	0xbb8108a8	-0.0039377995
203	0xbc8a5ce0	-0.01688999
204	0x3d29ad17	0.041424837
205	0x3d19d481	0.037556175
206	0x3d061109	0.03273109
207	0x3c532350	0.012886837
208	0x3c04fc74	0.00811683
209	0xbcbd0788	-0.02307488
210	0xbb4b5e10	-0.0031031407
211	0x3b1b3d80	0.002368778
212	0x3cf1c9f2	0.02951524
213	0x3c58e654	0.013238508
214	0x3bd08a08	0.006364111
215	0x3d08b12b	0.033372086
216	0xbca7db5e	-0.020490345
217	0xbcd0a5c0	-0.02546966
218	0x3bc198d8	0.005908113
219	0x3ce9b63a	0.028529275
220	0xbcdc8cdb	-0.026922634
221	0x3cbd360e	0.023097064
222	0x3cd0fbd2	0.025510702
223	0xbcf95138	-0.030434236
224	0x3c38bd10	0.011275545
225	0x3ba7abc0	0.0051169097
226	0x3c88d4f0	0.016703099
227	0x3c8b2d10	0.01698926
228	0xbd21bd03	-0.039486896
229	0xbcaa911e	-0.02082115
230	0x3a1d7440	0.00060063973
231	0xbd1974cf	-0.037464913
232	0x3ce386c2	0.027774218
233	0x3c074764	0.008256767
234	0x3d015d0f	0.03158289
235	0xbc6d08c6	-0.014467424
236	0xbca62deb	-0.020285567
237	0x3c3823bc	0.0112389885
238	0x3bfe9ee0	0.007770404
239	0x3cbf95f2	0.02338693
240	0x3d24f151	0.0402692
241	0xbbee70c0	-0.0072766244
242	0xbab233e0	-0.0013595782
243	0x3c82fec0	0.015990615
244	0xbb5ebd50	-0.003398735
245	0xbd2395de	-0.039937846
246	0x3d1353d5	0.03596862
247	0x3ce666c6	0.028125178
248	0x3c74b60c	0.0149359815
249	0xbd16ad64	-0.036786452
250	0x3d1baa13	0.038003992
251	0x3cf41dce	0.029799368
252	0x3cfc74e2	0.030817453
253	0xbb9dc7b8	-0.004815068
254	0xbccf6a06	-0.02531911
255	0xbcfc6d7e	-0.030813929
